model.pth (torch, 87169 bytes, 12 tensors)

weight_ih_l0 f4 [256, 3]
0	0xbd2a83cf	-0.04162961
1	0x3d2cb3f8	0.04216382
2	0xbd53abcb	-0.051677506
3	0x3d2a6b34	0.041606143
4	0xbdb00fba	-0.085967496
5	0x3d1179e0	0.03551662
6	0x3e259ec6	0.16173849
7	0x3e0436b8	0.12911499
8	0x3d0f2e57	0.034956302
9	0x3df2258c	0.11823568
10	0x3e111ec2	0.1417189
11	0x3dbee764	0.09321478
12	0x3dd6d0b1	0.104890235
13	0x3dd13b86	0.10216431
14	0x3be98f92	0.0071277106
15	0x3df859a8	0.121264756
16	0x3d483ed3	0.04888804
17	0x3e178da1	0.14800121
18	0x3d5756db	0.052573066
19	0x3dc5d116	0.096590206
20	0xbd50b45d	-0.050953258
21	0xbd5e5beb	-0.05428688
22	0x3c864c35	0.01639376
23	0x3dab2e10	0.08358395
24	0x3d3d80ab	0.046265285
25	0xbda410ea	-0.080110386
26	0xbd442aea	-0.04789249
27	0x3e218140	0.15771961
28	0x3d8c6462	0.06855084
29	0x3d216be4	0.039409533
30	0x3e17c982	0.14822963
31	0x3d9cba41	0.076527126
32	0xbd8d50e6	-0.06900196
33	0x3e286d0a	0.16447845
34	0x3d881122	0.06643893
35	0x3ddaf5e5	0.10691432
36	0xbd980150	-0.07422125
37	0xbdb37ab4	-0.08763638
38	0x3d5014bc	0.050801024
39	0x3db8dce3	0.09026506
40	0x3dbdc5f7	0.092662744
41	0x3dace382	0.08441831
42	0x3db8bbaa	0.09020169
43	0x3da4ffa4	0.08056572
44	0x3e03cf93	0.12872152
45	0x3e13e055	0.14441045
46	0x3dd2f943	0.10301449
47	0xbc0c5ce5	-0.00856707
48	0xbd60ca3f	-0.054880377
49	0x3df9a684	0.121899635
50	0x3dc14aef	0.094381206
51	0xbd3d60d2	-0.046234913
52	0xbac1d2c1	-0.0014787541
53	0x3c8990f1	0.016792746
54	0x3a8d99b9	0.0010803259
55	0xbd6aecf7	-0.057354894
56	0x3cb176ef	0.021663157
57	0xbd7f6493	-0.062351774
58	0x3ddc2b80	0.107504845
59	0x3dbd883e	0.09254502
60	0x3e1e081d	0.15432782
61	0x3d5be9c7	0.053689744
62	0xbce2beb9	-0.027678834
63	0x3d9b5ebf	0.07586431
64	0xbd42d947	-0.047570493
65	0xbb5deb6d	-0.0033862249
66	0x3e299976	0.16562447
67	0xbd7324a6	-0.059361123
68	0x3d5f61f0	0.05453676
69	0x3be591e5	0.0070059174
70	0x3d9ed54d	0.07755528
71	0xbd186908	-0.03720954
72	0x3e225c77	0.15855585
73	0xbd0848a1	-0.03327239
74	0xbd751468	-0.059833914
75	0x3c12f6f0	0.008970007
76	0x3e06b7f0	0.13156104
77	0xbd996530	-0.07490003
78	0xbb8a67c1	-0.004223794
79	0x3dc29cab	0.09502538
80	0x3c19c438	0.009385161
81	0xba848667	-0.0010110856
82	0xbd0fff70	-0.035155714
83	0x3d744ea9	0.05964533
84	0xbcaea395	-0.021318236
85	0xb9bf4d45	-0.0003648793
86	0xbc60f80f	-0.013731017
87	0x3e242971	0.16031434
88	0x3ce20586	0.027590524
89	0x3d4bc3c2	0.049747236
90	0x3daab095	0.083344616
91	0xbd550ded	-0.052015234
92	0xbd63402f	-0.055481132
93	0x3db56742	0.088575855
94	0xbdbf9d29	-0.09356148
95	0x3dffc62c	0.1248897
96	0x3cf9baac	0.03048452
97	0x3e104a46	0.14090833
98	0x3beb2d73	0.007177049
99	0xbd2b7824	-0.041862622
100	0xbd3e79c8	-0.04650286
101	0xbc63f1b1	-0.013912604
102	0x3cc70c1b	0.024297765
103	0xbdd13f13	-0.102171086
104	0x3c7bc339	0.015366369
105	0xbd2c4999	-0.042062376
106	0x3e11776b	0.1420571
107	0xbbf5def1	-0.0075033833
108	0x3cf22e05	0.02956296
109	0x3e17833d	0.14796157
110	0xbbe49cfc	-0.006976722
111	0x3d81dea0	0.063412905
112	0x3dc65100	0.09683418
113	0x3c7173c4	0.014737073
114	0x3e0b8e05	0.13628395
115	0x3d980b00	0.07423973
116	0x3b72c576	0.0037043965
117	0x3d8a7a8e	0.06761657
118	0x3dd47e0d	0.10375605
119	0x3d0b2694	0.033972338
120	0xbc51a9e0	-0.012796849
121	0xbbbc5d4c	-0.0057484265
122	0xb9a855f7	-0.00032107506
123	0x3dfcb329	0.123388596
124	0x3d29fd69	0.041501436
125	0x3df5bcf0	0.119989276
126	0xbdc8e0d5	-0.09808508
127	0x3da5e28f	0.08099853
128	0x3dbbd2f2	0.09171094
129	0x3dc0a421	0.09406305
130	0xbc8b77bc	-0.017024867
131	0xbdacb637	-0.08433192
132	0x3eae0438	0.33987594
133	0xbe1a26f0	-0.15053916
134	0x3d1714a1	0.036884908
135	0x3e00ed73	0.1259058
136	0x3e13b3cc	0.14424056
137	0x3ce2dfe7	0.027694656
138	0x3e02321c	0.12714428
139	0xbdb7515b	-0.08951064
140	0x3bb870ac	0.005628666
141	0x3c347ae2	0.011015626
142	0x3db1f9b9	0.08690209
143	0xbd67796d	-0.056512285
144	0x3c64fde9	0.0139765525
145	0x3e0ffd26	0.14061412
146	0xbd542750	-0.051795304
147	0xbcaf8416	-0.021425288
148	0xbdc6b831	-0.097031005
149	0xbcbb83a2	-0.022889916
150	0x3e07665b	0.1322264
151	0x3bb57a73	0.0055382787
152	0x3ddece96	0.10879247
153	0xbd4051d4	-0.046953037
154	0x3e0c788b	0.13717858
155	0x3d80a7d0	0.06282008
156	0xbd4d316f	-0.05009597
157	0x3e1b3e81	0.15160562
158	0x3c339933	0.0109618185
159	0xbd98f21b	-0.07468053
160	0x3d9d698e	0.076861486
161	0x3d1b5cde	0.037930362
162	0x3db1f09e	0.08688472
163	0x3ca6a750	0.020343453
164	0x3e1e7388	0.15473759
165	0x3dc7424a	0.097294405
166	0x3be4314c	0.0069638845
167	0x3e06d0e1	0.13165618
168	0x3cc33dd0	0.023833185
169	0x3d6dddf5	0.058073003
170	0x3bcf4786	0.006325665
171	0x3d3360f5	0.043793637
172	0x3e0f11a4	0.13971573
173	0xbc797c2c	-0.015227359
174	0x3e051221	0.12995197
175	0x3ca8e279	0.020615803
176	0xbd6b002b	-0.057373207
177	0x3df6af47	0.1204515
178	0x3dd9c42f	0.10633122
179	0x3e0bd423	0.13655142
180	0x3cf2f452	0.029657517
181	0xbcf00ac9	-0.029302018
182	0x3d97e476	0.07416622
183	0xbd2664f9	-0.04062364
184	0xbc8ad4bd	-0.016947145
185	0x3d95cbe3	0.07314279
186	0x3d3423c7	0.043979432
187	0x3e15faba	0.14646426
188	0xbd99e6f6	-0.075147554
189	0x3e0c5c96	0.13707194
190	0x3d88531a	0.06656475
191	0xbcd82a3f	-0.026387332
192	0x3c5e7cec	0.013579588
193	0xbd22cd2d	-0.039746452
194	0xbd978dce	-0.07400094
195	0xbb82d6f1	-0.003992908
196	0x3dc91cab	0.09819921
197	0x3da640f0	0.081178546
198	0x3e253a7b	0.1613559
199	0xbdac2fcd	-0.08407555
200	0xbd4e5279	-0.05037162
201	0xbc8e1bce	-0.017347243
202	0xbd324c9a	-0.043530084
203	0xbd74050d	-0.05957513
204	0xbd341282	-0.043962963
205	0x3bd1607d	0.006389676
206	0xbd829e28	-0.06377822
207	0xbd8bc4ec	-0.06824669
208	0x3d0445b0	0.03229302
209	0x3ccae240	0.024766088
210	0xbd9977eb	-0.07493576
211	0x3d05dcf2	0.032681413
212	0x3c018c89	0.007907041
213	0x3e060531	0.13087918
214	0x3d9845df	0.07435202
215	0x3e216505	0.15761192
216	0x3d93591b	0.0719473
217	0x3dbda747	0.09260421
218	0x3d567c76	0.05236479
219	0x3e19c4fa	0.15016547
220	0xbc63dab9	-0.013907128
221	0xbb2d42e7	-0.0026437582
222	0x3c3c7cd1	0.011504368
223	0xbd7d9b29	-0.06191555
224	0x3ddcbbce	0.107780084
225	0x3ccfcebe	0.025367137
226	0x3d0d1918	0.03444776
227	0xbbcf8e04	-0.0063340683
228	0x3e29dc06	0.16587839
229	0xbd25f19f	-0.04051363
230	0x3d97dc88	0.0741511
231	0x3d7ba2df	0.061434623
232	0x3dbf1141	0.09329463
233	0xbd6eaefd	-0.05827235
234	0x3d7b4f72	0.06135506
235	0x3cbd6977	0.023121579
236	0x3e23c998	0.1599487
237	0x3c115bbb	0.008871968
238	0xbd62380a	-0.055229224
239	0xbd87ff9e	-0.06640552
240	0x3d6b34c0	0.057423353
241	0x3d6a4386	0.0571933
242	0x3d28fa3b	0.041254263
243	0xbda26c48	-0.07930809
244	0xbdc1545b	-0.09439918
245	0x3d2aab29	0.041667137
246	0x3e1d729a	0.15375748
247	0x3d3c5617	0.04598054
248	0x3d77a44e	0.060459428
249	0x3c83bd1d	0.016081387
250	0x3c847628	0.016169623
251	0x3d5ad7aa	0.05342833
252	0x3c22a997	0.009928129
253	0xbcd7cc9d	-0.026342684
254	0x3e19fd6c	0.15038079
255	0x3e220e8d	0.15825863

weight_hh_l0 f4 [256, 64]
0	0xbd652128	-0.055939823
1	0x3d6570ca	0.056015767
2	0x3d402fe0	0.046920657
3	0xbcc6c5f1	-0.024264308
4	0xbd277602	-0.040884025
5	0xbddf041e	-0.10889457
6	0x3d0358b5	0.03206702
7	0x3dc9f724	0.098615915
8	0x3cab159e	0.020884331
9	0xbde05a88	-0.109547675
10	0x3c480384	0.012207869
11	0xbe347200	-0.17621613
12	0xbcd50a4d	-0.026005888
13	0xbd1c12ef	-0.038103994
14	0x3d7f8eb5	0.062391955
15	0x3cd1ca35	0.025609115
16	0xbe33b1fc	-0.17548364
17	0x3d32d6af	0.04366177
18	0xbd94ca62	-0.07265164
19	0xbdeb12fa	-0.11478229
20	0xbd9b18c9	-0.07573087
21	0xbe228815	-0.15872224
22	0xbceca41e	-0.02888685
23	0xbcce57fe	-0.025188442
24	0x3d011cce	0.03152161
25	0xbe2cb7ed	-0.16867037
26	0x3c8e2947	0.017353667
27	0x3da4d5dd	0.08048604
28	0xbcddbe81	-0.027068378
29	0x3ccad9db	0.024762085
30	0x3e1f3301	0.155468
31	0xbe0122d3	-0.1261094
32	0x3d5c2c63	0.053753268
33	0x3d6fbc34	0.058529094
34	0xbd994c97	-0.074853115
35	0x3dca6a07	0.09883504
36	0x3931f476	0.00016971104
37	0x3df7e757	0.121046714
38	0x3d999de6	0.0750082
39	0xbbb11ccf	-0.0054050456
40	0xbdf3366f	-0.11875617
41	0x3e00fbbc	0.12596029
42	0xbd620a18	-0.055185407
43	0x3d976ea1	0.07394148
44	0xbdf9019b	-0.12158509
45	0xbd0e5d6a	-0.034757055
46	0xbcb205d8	-0.021731302
47	0x3e2d298a	0.16910377
48	0xbd7fbc01	-0.062435154
49	0x3e251748	0.16122162
50	0xbc42051b	-0.011842038
51	0x3dad78cb	0.08470305
52	0xbdb41541	-0.08793116
53	0x3de5d3e9	0.11222059
54	0x3e2b25d1	0.16713645
55	0x3cd78435	0.026308158
56	0xbcba727d	-0.02275967
57	0x3d66757e	0.056264393
58	0x3d518d82	0.051160343
59	0xbd1ab14d	-0.037766743
60	0xbbc8b9f5	-0.0061256834
61	0xbda15ccb	-0.07879027
62	0xbd6c2f3e	-0.05766224
63	0x3d89baba	0.067250684
64	0xbc6f77e2	-0.014615985
65	0x3e04dd68	0.12975085
66	0x3db6c799	0.08924789
67	0x3e0bbf0a	0.13647094
68	0x3d4dc837	0.050239768
69	0xbdd221a7	-0.10260325
70	0xbd6b70f8	-0.057480782
71	0xbd4afa24	-0.04955496
72	0xbd7a5792	-0.06111867
73	0xbdfb7579	-0.122782655
74	0x3d9b0c90	0.075707555
75	0xbbe51b45	-0.006991776
76	0xba430644	-0.00074395933
77	0xbc344ca3	-0.0110046
78	0x3d429397	0.047504034
79	0xbd62c371	-0.05536217
80	0x3cd54332	0.026033018
81	0xbe053cc6	-0.13011464
82	0xbd052304	-0.032504097
83	0xbe09c195	-0.13452752
84	0xbd8453d2	-0.064613
85	0xbe036e9a	-0.1283516
86	0x3d3b5968	0.04573956
87	0x3e0b6879	0.13614072
88	0x3d577ce5	0.052609343
89	0x3b7d31d1	0.003863443
90	0x3d04f6d1	0.032461945
91	0x3e285992	0.16440418
92	0x3df05ad0	0.11736071
93	0x3a728977	0.0009252051
94	0x3e2145d0	0.15749288
95	0xbd8c8d17	-0.06862848
96	0xbc0f1f31	-0.008735464
97	0x3e0c7afb	0.13718788
98	0xbddc9000	-0.10769653
99	0x3d5d7c21	0.054073457
100	0x3de9e1fe	0.11420058
101	0x3d9e4987	0.07728868
102	0x3d83d728	0.06437522
103	0x3d8812ec	0.06644234
104	0xbe16a1bf	-0.14710139
105	0xbd98e5ae	-0.07465683
106	0x3df295f9	0.11845011
107	0xbd03ce06	-0.0321789
108	0xbdab59da	-0.08366747
109	0x3dd20a3e	0.1025586
110	0xbdaaaf61	-0.08334232
111	0xbd3040f2	-0.043030687
112	0x3dff0c20	0.124534845
113	0x3ddf36ed	0.10899148
114	0xbdb806d2	-0.08985676
115	0x3e01683f	0.12637423
116	0x3ba793d4	0.005114058
117	0xbdbd8d90	-0.092555165
118	0x3d8f2b11	0.06990636
119	0xbd81b56e	-0.06333433
120	0x3b03edac	0.0020130677
121	0xbc810b6d	-0.015752519
122	0x3cb16372	0.021653865
123	0x3cfeee75	0.031119565
124	0xbc36d9df	-0.011160343
125	0xbc45510e	-0.012043251
126	0xbda54c0f	-0.08071148
127	0xbd060b02	-0.03272534
128	0x3ae46d95	0.0017427678
129	0x3e07aea9	0.13250221
130	0x3bf5f8ab	0.00750645
131	0x3e1726cd	0.14760895
132	0xbe00a8d4	-0.12564403
133	0xbbfaa32a	-0.007648845
134	0x3daba0b6	0.083802626
135	0x3dccdcfb	0.10003086
136	0xbc8bc293	-0.017060554
137	0x3cbe21eb	0.023209533
138	0xbd296990	-0.041360438
139	0x3b87a49e	0.004139497
140	0xbcdf8eb9	-0.027289735
141	0x3c00c009	0.007858285
142	0xbc987bfa	-0.018613804
143	0x3d03c5fd	0.03217124
144	0xbe1657c5	-0.14681919
145	0xbc3982af	-0.011322661
146	0x3d4a6496	0.049412332
147	0xbcbf8032	-0.023376558
148	0xbb97731b	-0.004621876
149	0xbdd433fd	-0.103614785
150	0xbdbce455	-0.092232384
151	0x3e038776	0.12844643
152	0xbda4719f	-0.08029484
153	0xbdee2fb7	-0.11630195
154	0x3d8f7b27	0.07005911
155	0x3dafd8e0	0.085862875
156	0x3d0a0bf1	0.033702794
157	0x3cee5a06	0.02909566
158	0x3d98690e	0.074419126
159	0xbdcfb97e	-0.10142802
160	0xbd1a032d	-0.037600685
161	0x3dba6b63	0.09102514
162	0x3da4dc9a	0.08049889
163	0x3ca7af1d	0.020469243
164	0x3cc83bd7	0.024442596
165	0x3b185aa4	0.0023247385
166	0x3d4355d8	0.04768929
167	0x3c98e587	0.018664135
168	0xbe079027	-0.13238584
169	0xbd6b20f8	-0.05740449
170	0x3e077c95	0.13231118
171	0x3e2c9abe	0.16855904
172	0xbc257715	-0.010099192
173	0x3da26562	0.079294935
174	0xbd3f4cbf	-0.04670405
175	0x3d83a793	0.064284466
176	0xbc75d04d	-0.015003276
177	0xbd1f6f6d	-0.038924623
178	0x3c0d626b	0.008629422
179	0x3d553287	0.05205014
180	0xbd480d7f	-0.048840996
181	0x3dbd61cc	0.09247169
182	0x3e116f0a	0.14202514
183	0xbd5dfcd5	-0.054196198
184	0x3df4d288	0.11954218
185	0x3dfe705e	0.12423776
186	0xbdff32c0	-0.12460852
187	0x3d8cb48e	0.068703756
188	0x3d97403a	0.07385297
189	0x3dc608b2	0.09669627
190	0xbdf1da41	-0.11809207
191	0xbe1192fe	-0.1421623
192	0xbdf555f1	-0.11979283
193	0x3dc37bd8	0.09545106
194	0xbd6cbffd	-0.05780028
195	0xbcc825b4	-0.02443204
196	0xbcbcf8d7	-0.023067875
197	0xbdcbabda	-0.099448875
198	0x3dafa882	0.08577062
199	0xbd4890f7	-0.048966374
200	0x3de6794e	0.11253606
201	0xbd89696e	-0.06709562
202	0xba7b1866	-0.0009578526
203	0xbcd4d58c	-0.025980733
204	0x3cfd630d	0.03093102
205	0x3d40cc95	0.047070105
206	0xbe205adf	-0.15659665
207	0x3db13192	0.08652033
208	0xbd9d59f9	-0.076831765
209	0x3c9a55d6	0.018839758
210	0xbc0e3f2a	-0.008682052
211	0xbaf5b415	-0.0018745685
212	0x3d5bc99f	0.053659078
213	0xbe06a394	-0.13148338
214	0x3c86a50a	0.016436119
215	0xbd5b2d0b	-0.053509753
216	0xbdf5cfb3	-0.12002506
217	0x3d56cade	0.052439563
218	0x3e087cd2	0.13328865
219	0x3c55e3f0	0.013054833
220	0x3d7e7dac	0.06213157
221	0x3d2b46f7	0.041815724
222	0x3d214fbb	0.039382678
223	0xbd13913d	-0.036027182
224	0xbc7d5179	-0.015461319
225	0xbd2e8fee	-0.04261773
226	0x3caff849	0.021480696
227	0x3e11bfc5	0.1423331
228	0x3c35df94	0.011100668
229	0x3de1866d	0.11011968
230	0x3dabe875	0.08393947
231	0x3d9573be	0.07297467
232	0xbcbe5351	-0.023233088
233	0x3d5ada0f	0.053430613
234	0x3dbc6b07	0.09200101
235	0xbd39a750	-0.045325577
236	0x3d568e9c	0.052382097
237	0xbd122070	-0.035675466
238	0xbc17bd18	-0.009261392
239	0xbd2a9ade	-0.0416516
240	0x3dce65b9	0.10077996
241	0x3a047988	0.000505351
242	0xbe022550	-0.12709546
243	0x3ba17fde	0.004928573
244	0xbdbf05d2	-0.09327282
245	0xbcf46c5b	-0.029836824
246	0xbd6d5b3f	-0.057948347
247	0xbc3f43d4	-0.011673886
248	0xbda4c519	-0.08045406
249	0x3d25b1d5	0.040452797
250	0x3cebc7e3	0.028781837
251	0x3e1fa375	0.15589698
252	0xbd3caccc	-0.04606323
253	0xbd994861	-0.07484508
254	0x3d143c5c	0.036190376
255	0x3d5059f6	0.050867043

bias_ih_l0 f4 [256]
0	0xbce55de6	-0.027998876
1	0xbdc25a45	-0.09489874
2	0x3e213ee3	0.15746646
3	0xb956ea59	-0.00020495932
4	0xbaddf7d3	-0.0016934819
5	0xbd41cd51	-0.047314946
6	0x3e0ea353	0.13929491
7	0x3cb8d9b3	0.022564745
8	0x3d321f3b	0.043486815
9	0x3df55a57	0.119801216
10	0x3d0834da	0.03325353
11	0xbbb91b07	-0.005648974
12	0x3d6678f7	0.056267705
13	0x3ba09271	0.0049002697
14	0x3d10fbc0	0.035396338
15	0xbbf55883	-0.007487358
16	0x3d8c01ac	0.068362564
17	0x3dcad66c	0.09904179
18	0x3e07376c	0.13204736
19	0xbbb401da	-0.005493385
20	0x3dbc5d1b	0.09197446
21	0x3da8a43d	0.08234451
22	0x3c35d538	0.011098199
23	0x3d822e5d	0.06356499
24	0x3d32aac3	0.043619882
25	0xbc28e2b9	-0.010307961
26	0x3c909fea	0.017654378
27	0xbcd21b02	-0.025647644
28	0x3dce37a9	0.1006921
29	0x3c8a0bd9	0.016851353
30	0xbcf3fdf8	-0.029784188
31	0x3dbbbf15	0.091673054
32	0xbccc6ae7	-0.024953319
33	0xbd9c613b	-0.07635733
34	0x3d7870bd	0.06065439
35	0xbc7c275f	-0.015390246
36	0x3d37f8b0	0.0449149
37	0x3dedcb42	0.11611034
38	0xbd8e2680	-0.06940937
39	0x3de69993	0.11259761
40	0x3cf0fb84	0.029416807
41	0xbc1cdb25	-0.0095737325
42	0xbcc0ff3c	-0.023559205
43	0x3cbdb4e8	0.023157552
44	0x3dba64b7	0.09101241
45	0x3cc967ab	0.024585566
46	0xbd64ced0	-0.055861294
47	0x3d7dac0c	0.061931655
48	0x3bac2b89	0.005254213
49	0xbc91156e	-0.017710414
50	0xbd9a328a	-0.07529171
51	0xbd0abafa	-0.03386972
52	0x3e1d063e	0.15334412
53	0x3cb435d5	0.021998325
54	0xbd42e30a	-0.047579803
55	0xbd5f80fb	-0.054566365
56	0x3d22af1b	0.039717775
57	0x3cfae5c0	0.030627131
58	0xbd74d2c5	-0.059771318
59	0xbd215465	-0.039387126
60	0x3d061945	0.032738943
61	0x3d1abad5	0.037775833
62	0x3d858a4b	0.06520518
63	0xbcb297ff	-0.021800993
64	0x3e012cc8	0.12614739
65	0x3daf0276	0.08545391
66	0x3d250cc5	0.04029538
67	0x3cfe910b	0.031075021
68	0xbd3e3aad	-0.046442676
69	0x3e0e943b	0.13923733
70	0xbd8478d5	-0.064683594
71	0x3d92a4b6	0.07160322
72	0x3dd662d2	0.10468067
73	0x3dd1f1ba	0.10251184
74	0x3d7d18b3	0.061791133
75	0x3dea4c0d	0.11440287
76	0x3da20a03	0.07912066
77	0xbbba3d7d	-0.0056835995
78	0x3e2621d4	0.16223842
79	0x3e02be98	0.12768018
80	0xbd068de2	-0.032850154
81	0x3e094980	0.13406944
82	0x3c5888da	0.013216222
83	0xbda3324b	-0.07968577
84	0x3e282548	0.16420472
85	0xbd998c53	-0.07497468
86	0x3e247be0	0.1606288
87	0xbd9436b4	-0.07236996
88	0x3d13057c	0.035893902
89	0x3cf4ec4d	0.029897833
90	0x3e0ba11c	0.13635677
91	0xbd0ef98b	-0.03490595
92	0x3d99bb95	0.075064816
93	0x3dce1e0b	0.10064324
94	0xbd1e77bc	-0.038688406
95	0x3e117e9e	0.14208457
96	0x3ddc2b3a	0.10750432
97	0x3dc489fd	0.09596632
98	0x3c082c0c	0.008311283
99	0x3d803ea9	0.062619515
100	0xbdb67f2d	-0.089109756
101	0xbd477649	-0.04869679
102	0x3dbcb780	0.09214687
103	0x3d40bd59	0.047055576
104	0xbc7ac1de	-0.015305011
105	0xbd55d906	-0.052208923
106	0x3dc8d3c6	0.098060176
107	0x3ca2e434	0.019884206
108	0xbd5507d7	-0.05200943
109	0x3dd19395	0.10233227
110	0x3d3275f6	0.043569528
111	0x3df122a9	0.11774189
112	0xbcce28a5	-0.025165865
113	0x3e0e9619	0.13924445
114	0xbc5f576a	-0.013631681
115	0xbd9769d8	-0.07393235
116	0x3e1c90d2	0.1528962
117	0x3ded457a	0.11585517
118	0x3cef1693	0.029185569
119	0x3d919271	0.071080096
120	0x3d96b741	0.07359172
121	0xbd82019d	-0.06347964
122	0x3d17dc13	0.037075114
123	0x3deb6f50	0.114958405
124	0xbd8c3176	-0.068453714
125	0x3cf8205c	0.030288868
126	0xbc2ffc3d	-0.010741291
127	0x3cb8b6ca	0.022548098
128	0x3a0f58cf	0.00054682506
129	0x3d8cddb6	0.068782255
130	0x3e1c2598	0.15248716
131	0x3c01d944	0.007925335
132	0x3d82a76a	0.06379588
133	0xbd8968da	-0.06709452
134	0x3da09a09	0.0784188
135	0xbdaf3bc7	-0.085563235
136	0x3b80c006	0.003929141
137	0xbe18d34e	-0.14924356
138	0xbdd30611	-0.103038915
139	0xbe10c08a	-0.14135948
140	0xbd743568	-0.059621245
141	0xbe15e47a	-0.14637938
142	0xbe279068	-0.1636368
143	0x3d53cfb7	0.051711764
144	0x3d1c676d	0.038184572
145	0xbdfe9885	-0.124314345
146	0xbcc4c471	-0.024019452
147	0xbc71d819	-0.014760994
148	0x3cd16de0	0.025565088
149	0xbe12bbcf	-0.14329456
150	0xbdb3712d	-0.08761821
151	0x3e158d95	0.1460479
152	0xbdc51569	-0.09623224
153	0xbe0245a9	-0.12721886
154	0x3d615515	0.05501278
155	0x3e252527	0.16127454
156	0x3e123405	0.14277656
157	0xbdc11eaa	-0.09429677
158	0x3bef670a	0.0073059844
159	0xbd642e89	-0.055708442
160	0xbdd20758	-0.10255307
161	0xbd8a8cf0	-0.06765163
162	0x3d7c9cb4	0.06167288
163	0x3d1e395f	0.038628932
164	0x3e164175	0.14673407
165	0x3d8e153f	0.06937646
166	0x3e0189af	0.12650178
167	0x3d6fda6e	0.05855792
168	0xbdf83717	-0.121198826
169	0xbc652bdd	-0.013987509
170	0x3e008a34	0.1255272
171	0x3dfe14c9	0.12406308
172	0x3dc2accd	0.095056154
173	0x3e1bafbe	0.15203759
174	0x3c845cd2	0.016157541
175	0x3b2a7646	0.0026010438
176	0xbd2c1180	-0.042008877
177	0x3c931bf9	0.017957674
178	0x3d8494d0	0.06473696
179	0xbd5f3a06	-0.054498695
180	0xbe1ac1fa	-0.15113059
181	0x3dc2164e	0.094769105
182	0xbd7682b8	-0.060183257
183	0x3dd67d43	0.104731105
184	0x3e04108a	0.12896934
185	0x3d9e91d6	0.0774266
186	0xbdea81df	-0.11450552
187	0x3db565d7	0.08857315
188	0xbdb64540	-0.08899927
189	0x3ddaa023	0.10675075
190	0xbbe60ca7	-0.0070205512
191	0xbdb8e538	-0.09028095
192	0x3cf9eb33	0.03050766
193	0x3e2a3175	0.16620429
194	0x3da0a3fb	0.07843777
195	0x3c4b6eab	0.012416522
196	0x3e2b0466	0.16700897
197	0x3d1f8b62	0.038951285
198	0xbd824a40	-0.06361818
199	0x3e1e61ab	0.15466945
200	0x3d68c373	0.05682702
201	0x3e013e98	0.12621534
202	0x3e22292b	0.15836017
203	0xbca729c1	-0.020405652
204	0x3cb10e1d	0.021613175
205	0x3e1ee480	0.15516853
206	0xbccfe28e	-0.025376584
207	0xbc73daea	-0.014883736
208	0x3ccba59f	0.024859248
209	0x3dbbabb8	0.09163612
210	0xbd63f1e4	-0.055650607
211	0xbc0beb0d	-0.008539927
212	0x3d28cd9d	0.041211713
213	0xbd0cfc19	-0.034420107
214	0x3e205e5d	0.15660997
215	0x3d405801	0.046958927
216	0xbb5e02c5	-0.0033876162
217	0xba76c42e	-0.00094133883
218	0x3dcfd62c	0.10148272
219	0x3de55a30	0.111988425
220	0x3d25815b	0.040406566
221	0x3c8e334d	0.017358446
222	0xbd82d3ff	-0.06388091
223	0x3dba4478	0.09095091
224	0x3d9e7418	0.07736987
225	0x3be97412	0.0071244324
226	0xbc19e71b	-0.009393479
227	0x3daef7f1	0.08543385
228	0x3dee8793	0.116469525
229	0x3d8c5600	0.06852341
230	0x3c78d8db	0.015188421
231	0x3d816305	0.063177146
232	0xbd3dca4f	-0.046335515
233	0x3db0332c	0.0860351
234	0x3c209cc7	0.009803004
235	0xba22942a	-0.0006201888
236	0x3bd1e8d6	0.00640593
237	0x3bb889e4	0.005631672
238	0x3dfd36a9	0.12363941
239	0x3dc709f4	0.09718695
240	0x3dd69bd9	0.10478944
241	0x3e0df9bb	0.13864796
242	0x3d414e64	0.0471939
243	0xbb42627d	-0.0029660754
244	0xbd1dbf4d	-0.038512517
245	0xbd36c90e	-0.044625334
246	0xbd59bef1	-0.05316061
247	0x3c0872e3	0.008328172
248	0xbd96d226	-0.073643014
249	0x3e1dc93b	0.15408795
250	0xbbc7e106	-0.006099823
251	0x3e04b26f	0.12958692
252	0x3e113344	0.14179713
253	0x3d9965dd	0.07490132
254	0x3d1d8e69	0.03846589
255	0xbd7b9ef4	-0.061430886

bias_hh_l0 f4 [256]
0	0xbc777e9e	-0.0151058715
1	0x3d1fba32	0.03899593
2	0xbd9734bd	-0.07383106
3	0x3e1ae4a0	0.15126276
4	0xbd86782f	-0.06565892
5	0x3bbb8354	0.0057224426
6	0x3d8d88c9	0.06910855
7	0xbdac7b9d	-0.08422015
8	0x3d223bbd	0.039607752
9	0xbd888c75	-0.06667415
10	0x3e25e6a1	0.16201259
11	0x3dca2c39	0.09871716
12	0x3df73840	0.12071276
13	0x3d8c1232	0.06839408
14	0xbc9ddf21	-0.019271435
15	0x3e2575d6	0.16158232
16	0x3dc9db88	0.098563254
17	0x3e193956	0.14963278
18	0x3c8af887	0.01696421
19	0xbda81c72	-0.082085505
20	0x3deecea5	0.11660508
21	0x3dc61f88	0.09673983
22	0x3d9b29ce	0.07576333
23	0x3ce43598	0.027857587
24	0x3d725e3e	0.059171908
25	0x3df7b1d3	0.12094464
26	0xbd638ce5	-0.05555429
27	0xbd4e4ff2	-0.05036921
28	0xbd767f6a	-0.060180105
29	0x3d98dac8	0.07463604
30	0x3d7c02c6	0.061526082
31	0x3d145f90	0.036223948
32	0xbd802760	-0.0625751
33	0x3d24e5ed	0.040258337
34	0xbd161e87	-0.036650207
35	0xbd923a29	-0.071399994
36	0xbcd6abc7	-0.026204957
37	0x3d6fba4c	0.058527276
38	0xbcd615f7	-0.02613352
39	0x3e17d340	0.14826679
40	0x3d8f0040	0.069824696
41	0xbd837176	-0.06418125
42	0x3e1c6a5f	0.15274952
43	0x3e15241a	0.14564553
44	0xbd757ff4	-0.05993648
45	0x3df97faa	0.12182553
46	0xbd601a15	-0.054712374
47	0xbc418586	-0.01181162
48	0x3d0f9886	0.035057567
49	0x3defa7eb	0.1170195
50	0xbd12aad2	-0.03580744
51	0x3dce91a9	0.10086376
52	0x3c959c9c	0.018263154
53	0x3dae3090	0.08505356
54	0xbba93c5b	-0.0051646656
55	0x3e070605	0.1318589
56	0x3d4bb05c	0.049728736
57	0x3e118261	0.14209892
58	0x3dd58b4c	0.104269594
59	0x3db1ba88	0.08678156
60	0xbc52cbd5	-0.01286598
61	0xbd233884	-0.03984882
62	0x3d8a0277	0.067387514
63	0x3e11af6d	0.14227076
64	0x3d820149	0.063479014
65	0x3e19b5ab	0.15010707
66	0x3cd2b376	0.02572034
67	0x3d8d320f	0.068943135
68	0xbd49f001	-0.04930115
69	0xbd643fa5	-0.05572476
70	0x3d96b669	0.07359011
71	0xbbb930bd	-0.005651562
72	0xbcbc4cb9	-0.022985803
73	0xbd296152	-0.041352578
74	0x3c1bfb79	0.009520405
75	0xbd9c4ff9	-0.07632441
76	0xbc6cc98d	-0.01445235
77	0x3e178c93	0.14799719
78	0x3db8818b	0.09009083
79	0x3d963a0b	0.073352896
80	0x3d65f71d	0.05614387
81	0x3cc9bdcc	0.024626635
82	0x3dde9c86	0.10869698
83	0xbcb73d82	-0.022368196
84	0xbd5b98fb	-0.05361269
85	0x3d71a415	0.05899437
86	0x3d8ee84e	0.06977902
87	0xbd8093d5	-0.06278197
88	0x3de7d990	0.11320794
89	0x3d1fd275	0.039019067
90	0x3e11f9bc	0.14255422
91	0x3dfbfa38	0.12303585
92	0xbcb7e2b9	-0.022446977
93	0xbc9385c2	-0.018008117
94	0xbd99a324	-0.0750182
95	0x3d9d153f	0.07670068
96	0x3e26bbfc	0.16282648
97	0xbd6fb97e	-0.05852651
98	0xbb83faa8	-0.0040276833
99	0xbd43e789	-0.04782823
100	0x3d924f01	0.07143975
101	0x3dd131bd	0.10214565
102	0x3d0a6527	0.033787873
103	0x3e0bf7fe	0.1366882
104	0xbd886caa	-0.06661351
105	0x3d1db783	0.03850509
106	0xbd4b4c86	-0.049633525
107	0xbd804993	-0.06264033
108	0xbccf772b	-0.025325378
109	0x3e28562d	0.16439123
110	0x3c55d8cb	0.013052176
111	0x3c027481	0.007962347
112	0x3d692345	0.0569184
113	0xbcff1bc4	-0.03114117
114	0x3d122f3a	0.03568957
115	0x3d619307	0.055071857
116	0xbca1b91d	-0.01974159
117	0x3d24c187	0.040223625
118	0x3c8818fc	0.016613476
119	0x3d8c21d2	0.06842388
120	0xbd9cc1dc	-0.07654163
121	0xbc143e5b	-0.00904807
122	0x3d105168	0.035233885
123	0xbc78d3d0	-0.015187219
124	0x3d91d1b9	0.071200795
125	0xbae4b118	-0.0017447798
126	0x3d3c1cba	0.045925833
127	0x3e11ac0a	0.14225784
128	0xbd1ce2f0	-0.038302362
129	0xbd8610be	-0.06546162
130	0xbda642fb	-0.08118244
131	0x3e1087a0	0.14114237
132	0xbde7df4a	-0.11321886
133	0xbdb2ddab	-0.08733686
134	0x3e13f315	0.14448197
135	0x3d9f64da	0.07782908
136	0x3da90686	0.08253197
137	0x3d23a5eb	0.039953154
138	0xbd04b8ad	-0.032402683
139	0xbd151630	-0.036398113
140	0x3dd0d67f	0.10197162
141	0xbddf5eaf	-0.10906731
142	0xbdde9cb6	-0.10869734
143	0x3d7c0d12	0.061535902
144	0xbe147547	-0.14497863
145	0x3c90a4a9	0.017656641
146	0xbe1552c2	-0.14582351
147	0xbc650b99	-0.013979816
148	0xbc4a93ec	-0.012364369
149	0xbcbd02af	-0.023072569
150	0xbe03b550	-0.12862134
151	0x3dbfc4be	0.093636975
152	0xbe19d7f7	-0.1502379
153	0xbce98572	-0.028506014
154	0x3e09f3bd	0.13471885
155	0xbd949cda	-0.072564796
156	0xbc24651c	-0.010033872
157	0xbe146e41	-0.14495184
158	0x3e1a3308	0.1505853
159	0xbe06ff5b	-0.13183348
160	0xbd8947c9	-0.06703145
161	0x3d473999	0.048638914
162	0x3ce654e9	0.02811666
163	0x3e1aea87	0.15128528
164	0xbb128b49	-0.0022360852
165	0xbcb4e852	-0.022083435
166	0x3e1ae406	0.15126047
167	0xba98c266	-0.0011654615
168	0xbe1a0359	-0.1504034
169	0x3de03981	0.10948468
170	0xbc3cf83e	-0.011533795
171	0x3e0bd623	0.13655905
172	0x3d9a2fcb	0.07528647
173	0x3df21659	0.11820669
174	0xbe116631	-0.14199139
175	0x3db0b734	0.08628693
176	0x3d2dbd0b	0.042416614
177	0x3e0e5028	0.13897765
178	0xbdf7275c	-0.12068054
179	0x3e0b5dff	0.13610075
180	0xbdd745a3	-0.10511329
181	0x3d155b2b	0.036463898
182	0x3c6cc88f	0.014452114
183	0x3ddc09f9	0.1074409
184	0x3bf4959d	0.0074641244
185	0xbd862eb5	-0.065518774
186	0xbe04e78d	-0.12978955
187	0xbd533633	-0.05156536
188	0xbe0a0be7	-0.13481103
189	0xbda777f3	-0.081771754
190	0xbe0fe1a6	-0.14050922
191	0xbe0198d1	-0.12655951
192	0x3e247c85	0.16063125
193	0x3da86ef7	0.0822429
194	0xbd6d7fbc	-0.057983145
195	0x3d3fc12c	0.046815082
196	0xbd6ece76	-0.058302365
197	0x3c95c10a	0.018280525
198	0xbb6b1ae7	-0.003587419
199	0x3cc4e0f7	0.024033053
200	0x3d1d78e9	0.038445387
201	0x3dc57b19	0.0964262
202	0x3d2198f7	0.03945252
203	0xbba8ebbc	-0.005155055
204	0xbd0666db	-0.032812934
205	0xbd0ec5c0	-0.034856558
206	0x3cb90f86	0.02259041
207	0x3e05e0f0	0.13074088
208	0x3d426a8e	0.0474649
209	0xbd4659ca	-0.048425473
210	0x3e02fdd5	0.12792142
211	0x3d79b852	0.060966797
212	0x3d7c2a12	0.06156356
213	0xbd52969d	-0.051413167
214	0xbc63526c	-0.013874631
215	0xbcfc82f1	-0.030824156
216	0x3d91530b	0.07095917
217	0x3deae7ba	0.114699796
218	0x3dc6aa62	0.09700467
219	0x3c353b80	0.011061549
220	0x3d8f30c8	0.06991726
221	0x3c99f0fb	0.018791666
222	0xbd7c2757	-0.061560955
223	0xbd11513b	-0.035477858
224	0x3d84408a	0.06457622
225	0xbc949965	-0.01813955
226	0xbd074bfc	-0.03303145
227	0xbc23b0f7	-0.009990922
228	0xbd196307	-0.037447955
229	0x3d87220f	0.06598293
230	0xbcf55787	-0.029948963
231	0xbd8281df	-0.06372427
232	0x3da946c1	0.08265448
233	0x3d5f4731	0.054511253
234	0xbcf59ca4	-0.029981919
235	0xbd815549	-0.06315095
236	0xbd3b9039	-0.04579184
237	0xbd65c507	-0.056096103
238	0x3d8db4a4	0.0691922
239	0x3debe87c	0.11518952
240	0x3d82651b	0.063669406
241	0xbd720c1f	-0.05909359
242	0x3d3a75db	0.045522552
243	0x3c3d52db	0.011555399
244	0x3e1f73d6	0.15571532
245	0x3e24406a	0.16040197
246	0x3deabaee	0.11461435
247	0x3d20c999	0.03925476
248	0x3d094da2	0.033521302
249	0x3decccf7	0.115625314
250	0x3d3ff2cb	0.046862405
251	0x3e087572	0.13326052
252	0xbc0d726a	-0.0086332355
253	0xbd9defe2	-0.0771177
254	0x3d113d9e	0.035459153
255	0x3dedb19a	0.116061404

weight f4 [32, 64]
0	0xbddd0cc3	-0.1079345
1	0x3cf91046	0.030403268
2	0xbdde6df8	-0.108608186
3	0xbdfede50	-0.124447465
4	0x3d1c326f	0.038134035
5	0xbdc16682	-0.0944338
6	0xbc5b2c90	-0.013377324
7	0x3d9ebe5f	0.07751154
8	0xbd93bcb2	-0.07213725
9	0xbcf3e0f1	-0.029770346
10	0x3dc8f89b	0.09813043
11	0x3dab5a93	0.08366885
12	0xbd3bb659	-0.045828197
13	0x3d904087	0.070435576
14	0x3e18857a	0.14894667
15	0xbe10a43e	-0.14125153
16	0x3d6ddd54	0.058072403
17	0xbd8a5db8	-0.06756157
18	0xbd0d2b08	-0.034464866
19	0x3dd1a3d9	0.102363296
20	0x3d911a68	0.07085115
21	0xbc6ff41f	-0.014645605
22	0x3d6ea277	0.058260407
23	0x3d2df8c6	0.042473577
24	0x3d5e200d	0.054229785
25	0x3df7be94	0.12096897
26	0xbd2b2db7	-0.041791644
27	0x3ce65b3c	0.028119676
28	0x3d527dad	0.051389385
29	0xbd9a8607	-0.07545095
30	0x3df65281	0.12027455
31	0x3d98e315	0.074651875
32	0x3de78fe2	0.1130674
33	0xbdd3ba8c	-0.10338315
34	0x3dca764c	0.098858446
35	0x3d78d51a	0.060750104
36	0xbc6b9221	-0.014378102
37	0xbdc88b10	-0.09792149
38	0x3d88dc35	0.06682626
39	0xbdb26513	-0.087106846
40	0xbdcd908f	-0.10037338
41	0xbdc9357e	-0.09824656
42	0xbdea71f5	-0.11447517
43	0x3d9dc2b4	0.07703152
44	0xbe02bd5e	-0.1276755
45	0xbd8d588c	-0.069016546
46	0xbbf7badf	-0.0075601186
47	0x3d720c57	0.0590938
48	0x3ccf538b	0.025308391
49	0x3db9105e	0.09036325
50	0x3d29f80a	0.041496314
51	0x3c52ea51	0.012873248
52	0x3d3e49fc	0.046457276
53	0xbdf373b5	-0.11887304
54	0xbd498763	-0.04920138
55	0x3dac67ec	0.08418259
56	0x3d637b62	0.05553759
57	0xbde6d19c	-0.112704486
58	0x3e006351	0.12537886
59	0xbcecade1	-0.028891506
60	0x3be9aad6	0.007130961
61	0xbd35cf99	-0.044387434
62	0xbdbc3430	-0.091896415
63	0xbdd043dd	-0.10169194
64	0xbe1a3268	-0.15058291
65	0xbccd745d	-0.0250799
66	0xbcfe0140	-0.031006455
67	0x3df05bff	0.11736297
68	0xbdd1d158	-0.10245007
69	0xbd52fa33	-0.05150814
70	0xbcd4a957	-0.025959654
71	0xbc93cdbb	-0.018042436
72	0xbd145006	-0.03620913
73	0xbe4534fd	-0.19258495
74	0xbd2a12dc	-0.041521892
75	0xbe22bf5f	-0.15893315
76	0x3e215475	0.15754874
77	0x3be2d575	0.0069224187
78	0x3ccc4e43	0.024939662
79	0x3cc3eacc	0.02391567
80	0x3c9e7f3d	0.019347781
81	0xbe1be0d3	-0.15222482
82	0xbc970ed4	-0.018439688
83	0xbd740afc	-0.059580788
84	0x3caccec7	0.021094693
85	0xbd99edd1	-0.07516063
86	0xbd930dca	-0.071803644
87	0x3df62f0c	0.12020692
88	0xbda33833	-0.079697035
89	0xb9f88c5d	-0.00047406825
90	0x3e26b6c4	0.16280657
91	0x3dd16deb	0.10226043
92	0xbd1ff4a7	-0.039051678
93	0xbc0b2719	-0.008493208
94	0x3db0430b	0.086065374
95	0xbe496350	-0.19666791
96	0xbe1a8e6d	-0.15093394
97	0x3df605cf	0.12012827
98	0xbdf580cf	-0.11987459
99	0x3cd074ea	0.025446374
100	0xbcd0e433	-0.025499439
101	0x3ddbf9b5	0.10740987
102	0x3dd5f8f2	0.10447873
103	0xbd75bd9f	-0.05999529
104	0xbe0af07a	-0.13568297
105	0x3ddc6e41	0.10763217
106	0x3b80c38f	0.0039295624
107	0x3e527a3e	0.20554444
108	0xbdb1989f	-0.08671688
109	0xbcfd82b8	-0.03094612
110	0xbe24d083	-0.16095166
111	0x3d0beb8c	0.034160182
112	0x3e2d4ba3	0.16923384
113	0x3dbf812e	0.09350811
114	0xbe27ce83	-0.16387372
115	0x3d9cbecd	0.0765358
116	0xbe03fd5a	-0.12889615
117	0x3d8febda	0.07027407
118	0x3e20ee70	0.15715957
119	0x3de9e761	0.11421085
120	0x3deb2b72	0.11482896
121	0x3c5e3140	0.013561547
122	0xbe4002a9	-0.18751015
123	0x3e382519	0.17982902
124	0xbc1de80a	-0.009637842
125	0x3d6ca72d	0.05777662
126	0xbe094c53	-0.13408022
127	0xbba3f1f3	-0.005003208
128	0x3cda8471	0.026674481
129	0xbd909794	-0.07060161
130	0xbd8f69d6	-0.070026085
131	0xbdcad3d8	-0.09903687
132	0xbb0d399f	-0.0021549237
133	0x3d4149e4	0.04718961
134	0xbca8674f	-0.020557074
135	0xbdd77a9a	-0.10521431
136	0xbd42de80	-0.047575474
137	0xbdb8d2ca	-0.0902458
138	0x3dcd0e0d	0.100124456
139	0x3d06cf00	0.032912254
140	0x3dd1d9e5	0.10246638
141	0x3d8948f7	0.0670337
142	0xbd940d9d	-0.07229159
143	0xbd982b45	-0.07430128
144	0x3c0a9257	0.008457742
145	0xbca8133f	-0.02051699
146	0x3de28b4f	0.11061727
147	0x3d105fe3	0.035247695
148	0xbc78fa72	-0.01519643
149	0xbdcfdedf	-0.10149931
150	0xbd9f5416	-0.0777971
151	0xbd731bfe	-0.059352867
152	0xbd990633	-0.074718855
153	0x3c7c9713	0.015416878
154	0xbdbd102e	-0.09231602
155	0x3b537c19	0.0032270013
156	0x3dee5a6f	0.116383426
157	0x3d8b44aa	0.06800206
158	0x3d600a91	0.054697577
159	0xbdfcb7c3	-0.12339737
160	0x3d598a4e	0.053110413
161	0xbd80d9de	-0.06291555
162	0x3d4447bf	0.047919985
163	0xbddc7e2c	-0.10766253
164	0x3cea0889	0.028568523
165	0xbdc68ddc	-0.09695026
166	0xbdaf7c55	-0.08568636
167	0xbc20f41b	-0.009823824
168	0x3da3fa55	0.080067314
169	0xbd409022	-0.047012456
170	0x3db41038	0.08792156
171	0x3df601f5	0.12012092
172	0xbc88dc36	-0.016706567
173	0xbd70bd5d	-0.05877434
174	0x3b507416	0.0031807474
175	0xbd853f5b	-0.06506225
176	0x3de169d0	0.1100651
177	0xbca3a14e	-0.019974377
178	0xbd747a5e	-0.05968701
179	0xbcef502d	-0.029213035
180	0x3cff9251	0.031197699
181	0x3d254599	0.040349577
182	0x3d5bc06a	0.053650297
183	0x3c45a990	0.012064353
184	0x3d101fbc	0.035186514
185	0x3c7db257	0.015484414
186	0x3d86bdae	0.06579147
187	0xbcc8c83d	-0.024509544
188	0xbd29b598	-0.041432947
189	0xbdfe71cd	-0.124240495
190	0xbddb22d9	-0.10700006
191	0x3dee6dcb	0.11642035
192	0x3e1a243d	0.15052886
193	0x3d9eeb04	0.077596694
194	0x3b238a05	0.0024954092
195	0x3c90a82c	0.017658316
196	0x3d8c1607	0.06840139
197	0x3d31692b	0.043313187
198	0xbdf0df08	-0.1176129
199	0x3d24133f	0.040057417
200	0xbdc37933	-0.09544601
201	0xbdb6e8e7	-0.08931141
202	0x3b5b0674	0.0033420594
203	0x3b9d9f95	0.0048102834
204	0xbd2ffa40	-0.042963266
205	0x3ca46b8c	0.020070814
206	0x3d8dade4	0.06917933
207	0x3d40a5dd	0.04703318
208	0x3dfc400b	0.12316903
209	0xbc16fbae	-0.009215279
210	0xbde32943	-0.110918544
211	0x3c94058e	0.018069055
212	0x3d9b1046	0.07571463
213	0x3da05519	0.07828731
214	0xbdd95371	-0.10611618
215	0x3dd2d2e6	0.10294132
216	0xbc68d14d	-0.014210057
217	0x3d83482b	0.06410249
218	0x3cbbc7c7	0.02292241
219	0xbe26476e	-0.16238186
220	0xbca38675	-0.019961575
221	0xbdd35599	-0.10319061
222	0xbe0a572e	-0.13509819
223	0x3dcc5c70	0.099785686
224	0x3c9ca654	0.01912228
225	0xbd579b1d	-0.052638162
226	0x3defe7df	0.11714148
227	0x3ce7e909	0.028309362
228	0xbd86b134	-0.065767676
229	0xbdd85aa4	-0.10564163
230	0xbd8a7624	-0.06760815
231	0x3e218804	0.15774542
232	0xbde741e1	-0.11291862
233	0xbe205e01	-0.1566086
234	0x3dbda589	0.09260089
235	0xbdec8697	-0.115491085
236	0xbd63c52c	-0.05560796
237	0xbcd418a0	-0.025890648
238	0x3d725692	0.05916459
239	0xbc93aff9	-0.018028246
240	0x3d8e498f	0.06947624
241	0xbdbe70e6	-0.092988774
242	0x3df31ded	0.11870942
243	0x3d9873a9	0.074439354
244	0x3da3a392	0.07990183
245	0x3d274b62	0.040843375
246	0x3dd7f9c9	0.105456896
247	0x3d740905	0.059578914
248	0x3d810efe	0.06301688
249	0x3cbf9cb0	0.023390144
250	0x3d14901c	0.036270246
251	0xbdf8bd2c	-0.12145457
252	0x3df56e1a	0.11983891
253	0x3d46f218	0.048570722
254	0x3d133cf2	0.035946794
255	0xbc61ecbb	-0.013789351

bias f4 [32]
0	0x3d4666d0	0.048437893
1	0x3cc77958	0.024349853
2	0xbd0c8e14	-0.034315184
3	0xbcc9e36d	-0.024644578
4	0x3ca11b22	0.019666258
5	0x3d0a3c19	0.03374872
6	0xbdd00111	-0.101564534
7	0xbd8abf29	-0.06774742
8	0x3dd166cd	0.10224686
9	0xbda16e4c	-0.078823656
10	0x3d8e51aa	0.0694917
11	0xbd8ea780	-0.06965542
12	0x3d5ada96	0.053431116
13	0x3e1664fe	0.14686963
14	0x3cc4f351	0.024041804
15	0x3dc90cec	0.09816918
16	0x3d2b1a9d	0.041773427
17	0xbd92570a	-0.07145508
18	0xbc868f1d	-0.016425664
19	0xbd9f9da3	-0.07793739
20	0xbd902c02	-0.07039644
21	0x3d9bcbbb	0.07607218
22	0xbd31f05d	-0.04344212
23	0x3d3f5302	0.04671002
24	0x3d76f8e4	0.060295954
25	0xbddcf8fa	-0.10789676
26	0x3de0fbbe	0.10985516
27	0xbd90dc02	-0.07073213
28	0xbda4726f	-0.08029639
29	0x3e2613fd	0.16218562
30	0x3d34281d	0.043983568
31	0x3e2979e5	0.16550405

weight f4 [3, 32]
0	0xbe277453	-0.16352968
1	0x3df65263	0.12027433
2	0xbdbe4a91	-0.09291566
3	0x3da3846c	0.07984242
4	0xbdd02394	-0.10163036
5	0xbe0b39e5	-0.13596304
6	0xbde7e1f1	-0.11322392
7	0x3e3cce5d	0.18438096
8	0x3c91852d	0.017763698
9	0xbda2a8ed	-0.07942376
10	0xbe19049c	-0.14943165
11	0xbc68b1a1	-0.014202506
12	0xbcad32db	-0.021142414
13	0x3e4cb582	0.19991115
14	0x3e3bc303	0.1833611
15	0x3d816e71	0.06319893
16	0xbda8d9d9	-0.08244676
17	0xbe462da4	-0.19353348
18	0x3d191923	0.037377488
19	0xbd4fe2f0	-0.050753534
20	0xbe3b7202	-0.1830521
21	0x3cded07a	0.027199019
22	0x3d11da13	0.035608362
23	0x3e45ad7f	0.19304465
24	0xbdc87f07	-0.097898535
25	0xbe1512ad	-0.14557905
26	0x3d9ff4f6	0.078103945
27	0xbe262e67	-0.16228639
28	0xbe0d30c0	-0.13788128
29	0x3dad391f	0.084581606
30	0x3db5da2a	0.08879502
31	0x3e3a4217	0.18189274
32	0x3ddf54e6	0.10904865
33	0x3e572f5c	0.2101416
34	0xbcc1e054	-0.023666538
35	0xbdf62877	-0.12019437
36	0xbdc9cd75	-0.09853641
37	0x3db85042	0.08999683
38	0xbe238af9	-0.15970983
39	0xbdf9c48b	-0.12195691
40	0x3e1dac30	0.15397716
41	0x3c9924cf	0.01869431
42	0x3dead4b6	0.11466353
43	0x3e2f86ff	0.1714134
44	0x3e459df6	0.19298539
45	0x3c3b1e94	0.011420865
46	0x3e5f9ea1	0.21837856
47	0x3e285390	0.16438127
48	0x3e435243	0.19074349
49	0xbdd7663e	-0.10517548
50	0xbd8ecd0f	-0.069727056
51	0x3e06bfea	0.13159147
52	0x3e180dee	0.14849064
53	0xbd880a48	-0.06642586
54	0xbbe866e3	-0.007092343
55	0x3d720f8d	0.05909686
56	0xbe338582	-0.17531398
57	0xbdfefc17	-0.12450426
58	0x3e6bdb33	0.23032837
59	0xbe07941f	-0.13240097
60	0xbe637e9e	-0.2221627
61	0x3e631cf4	0.22179013
62	0x3d3a4e04	0.045484558
63	0xbb1fa08b	-0.0024357166
64	0xbe364909	-0.17801298
65	0xbda9a0c3	-0.08282616
66	0x3d768f0f	0.060195025
67	0x3dbaa487	0.09113412
68	0xbdd11a2b	-0.10210069
69	0xbded442f	-0.115852706
70	0x3d63dd3a	0.0556309
71	0x3e02d278	0.127756
72	0x3df42cae	0.119225845
73	0xbe4e67db	-0.20156805
74	0xbdc77017	-0.09738176
75	0x3d9788c8	0.07399136
76	0x3cf8845c	0.030336551
77	0x3e649205	0.22321327
78	0xbd107ae1	-0.035273436
79	0xbd9242d1	-0.071416505
80	0x3e20bf01	0.15697862
81	0x3d55c1d2	0.052186795
82	0x3e008ef9	0.1255454
83	0x3c9f7759	0.01946609
84	0xbdb395d5	-0.087688126
85	0x3e758a0a	0.23978439
86	0x3dd6d2a6	0.10489397
87	0x3df6db40	0.12053537
88	0x3d16d2cd	0.03682213
89	0x3d71f6ff	0.059073444
90	0x3e6fe7d1	0.23428275
91	0x3d918379	0.071051545
92	0xbe67fd77	-0.22655283
93	0xbd955558	-0.07291669
94	0x3e66acaa	0.22526804
95	0x3e595077	0.21222101

bias f4 [3]
0	0x3d4e0137	0.050294127
1	0xbc4ec65c	-0.012620535
2	0x3e5338f2	0.20627192

weight_ih_l0 f4 [12, 64]
0	0x3f0d34bd	0.551586
1	0xbf119ccf	-0.56879896
2	0x3d8a55f1	0.06754673
3	0x3ec4e374	0.38454783
4	0x3ee74e19	0.4517677
5	0xbeccc1ad	-0.39991513
6	0xbf017e8c	-0.5058372
7	0x3e4d2915	0.20035203
8	0x3e3a933b	0.18220226
9	0x3d06ce3f	0.032911535
10	0x3da14d23	0.07876041
11	0xbeb831af	-0.35975406
12	0xbec81c23	-0.39083967
13	0x3ef25b77	0.47335407
14	0x3ea3bc12	0.31979424
15	0xbe8e43a0	-0.2778597
16	0x3e505f04	0.20348746
17	0xbee2bc0b	-0.4428409
18	0x3eb89fec	0.3605951
19	0xbe8da037	-0.27661297
20	0x3eb8a981	0.3606682
21	0xbe23958b	-0.15975015
22	0xbe910e14	-0.28331053
23	0xbea9b1e2	-0.33143526
24	0x3e24846c	0.1606614
25	0xbd73610b	-0.05941872
26	0xbed8d498	-0.42349696
27	0x3f054d23	0.52070826
28	0x3ecc9edb	0.39964947
29	0xbef17f78	-0.47167563
30	0xbec38e44	-0.38194478
31	0x3f07076a	0.5274569
32	0xbf0094cf	-0.50227064
33	0x3eb82a98	0.35969996
34	0x3de01738	0.109419286
35	0xbd54a92c	-0.051919147
36	0x3ec9a667	0.39384767
37	0x3ec581e6	0.38575667
38	0xbec2b0e4	-0.38025582
39	0x3df121ad	0.11774001
40	0xbee7ff58	-0.45312
41	0x3f07669d	0.5289095
42	0xbe04368c	-0.12911433
43	0xbe6ab7ed	-0.22921725
44	0x3e37d528	0.17952406
45	0xbe2e5a35	-0.17026599
46	0xbed9ba98	-0.42525172
47	0xbe0c0b04	-0.13676077
48	0x3e5a687e	0.21328923
49	0xbedcad51	-0.4310098
50	0xbe473002	-0.19451907
51	0xbdf99e5b	-0.12188407
52	0x3e7ffa80	0.24997902
53	0x3d8a8979	0.06764502
54	0x3e99c579	0.30033472
55	0x3ecabd0e	0.39597362
56	0x3de89e09	0.11358268
57	0x3ef34577	0.47513935
58	0x3f08172c	0.5316036
59	0x3d790016	0.060791098
60	0xbee13db2	-0.43992382
61	0xbe471148	-0.19440186
62	0x3ef37390	0.47549105
63	0x3e40214c	0.18762702
64	0xbe16c2b6	-0.14722714
65	0x3ed38014	0.41308653
66	0xbe85a34e	-0.26101154
67	0x3ec8cc5d	0.39218417
68	0xbed93f6e	-0.42431206
69	0x3ea724bf	0.32645223
70	0xbf0f862a	-0.56064093
71	0xbeb849c5	-0.35993782
72	0xbe0f9c79	-0.14024533
73	0x3d394758	0.045234054
74	0xbe2bb212	-0.16767147
75	0x3e2e5597	0.17024837
76	0x3e0b9214	0.13629943
77	0xbdf2af25	-0.118498124
78	0xbeec368c	-0.46135366
79	0x3e203a36	0.15647206
80	0x3ed51723	0.41619214
81	0x3e7855c5	0.24251468
82	0x3ed272a3	0.41103086
83	0xbcade731	-0.021228405
84	0x3efe0af4	0.49617732
85	0x3e3bc48a	0.18336692
86	0xbef8036a	-0.48440105
87	0x3e9ed6da	0.31023294
88	0x3dd91626	0.105999276
89	0xbeeeb1d2	-0.4662004
90	0xbe9224ad	-0.28543606
91	0x3ecff9ea	0.40620357
92	0xbdb919a0	-0.09038091
93	0xbe816bc2	-0.25277525
94	0x3f09b40f	0.5379037
95	0xbed11c65	-0.40841976
96	0xbee047f5	-0.438049
97	0x3e7d969e	0.24764487
98	0xbeacc7ec	-0.33746278
99	0x3ee7e5a9	0.45292404
100	0xbcd46b08	-0.025929943
101	0x3eecf9e9	0.46284416
102	0xbf0f4845	-0.5596965
103	0x3df52254	0.11969438
104	0xbf06bce7	-0.5263199
105	0x3f08573a	0.532581
106	0xbf051183	-0.51979846
107	0x3ef5a86b	0.47980055
108	0xbedde8c2	-0.43341643
109	0x3e9dd801	0.3082886
110	0xbef03d2a	-0.46921664
111	0x3e5ea9d4	0.21744472
112	0x3eb507d1	0.35357526
113	0x3e9e5558	0.30924487
114	0xbeb119cb	-0.3458999
115	0x3cac9f66	0.0210721
116	0xbe995fb0	-0.29955816
117	0x3dd27097	0.10275381
118	0x3ecd36e5	0.40080944
119	0xbebea2b4	-0.37233508
120	0xbc6abb31	-0.0143268565
121	0x3dcfb767	0.10142403
122	0xbe499c48	-0.19688523
123	0x3e5893de	0.21150157
124	0xbf0cd07f	-0.5500564
125	0x3e9710bc	0.29504955
126	0xbe72c69e	-0.23708579
127	0x3ec15792	0.37762123
128	0xbe318ee5	-0.17339666
129	0xbd2f7e14	-0.042844847
130	0x3d45e1cb	0.048311036
131	0x3e2edda5	0.17076738
132	0xbf001e4c	-0.5004623
133	0x3e9efa81	0.31050494
134	0x3ec054d6	0.37564725
135	0xbeebca95	-0.46052995
136	0x3cfdc52f	0.030977814
137	0x3e7d03d8	0.24708498
138	0xbe9bae46	-0.30406398
139	0xbec37b40	-0.3817997
140	0x3e4f57da	0.20248356
141	0x3ea8d69d	0.32976237
142	0x3e647b48	0.22312653
143	0x3eb01e85	0.34398285
144	0x3ef94105	0.48682418
145	0xbc005c78	-0.007834546
146	0x3e938aa2	0.28816706
147	0xbdbfb2c6	-0.0936027
148	0xbeb0bbbf	-0.3451824
149	0xbeb91768	-0.3615067
150	0xbf0f1516	-0.5589155
151	0x3ea8b21d	0.3294839
152	0xbd2defa2	-0.04246486
153	0xbe65aeab	-0.22429912
154	0xbee003c5	-0.43752876
155	0xbea6d748	-0.32586122
156	0xbe6d0dca	-0.23149791
157	0x3e956ed0	0.29186106
158	0x3e4665d8	0.19374788
159	0xbea67c0f	-0.32516524
160	0x3e7b82c9	0.2456161
161	0x3ea9c69d	0.33159342
162	0x3d5ec64c	0.05438833
163	0x3de80672	0.11329354
164	0xbf080fd8	-0.53149176
165	0x3f1370b4	0.57593846
166	0xbf127d69	-0.5722261
167	0x3e08a090	0.133425
168	0x3f071b24	0.5277579
169	0x3e161f69	0.1466042
170	0xbe94d542	-0.29068953
171	0xbbaa6896	-0.005200456
172	0x3e216980	0.15762901
173	0xbd2f48f6	-0.04279419
174	0xbe60b704	-0.21944815
175	0x3d55bef3	0.052184056
176	0xbe4dc91e	-0.20096251
177	0xbe43a49d	-0.19105764
178	0x3f035a13	0.5130932
179	0x3cc8597d	0.024456734
180	0x3ec83e3e	0.39109987
181	0xbe4d668e	-0.20058653
182	0x3f0825e2	0.53182805
183	0x3dc12565	0.094309606
184	0x3e615c28	0.22007811
185	0xbda7b7f3	-0.081893824
186	0xbefaa52d	-0.48954144
187	0xbf0e0bd4	-0.554868
188	0x3ed59cab	0.4172109
189	0x3e369504	0.17830282
190	0xbecfc284	-0.4057809
191	0xbe8bdead	-0.27318326
192	0x3f1087bd	0.5645712
193	0x3ea3afd4	0.31970084
194	0x3ee1eb9a	0.44125062
195	0xbee47366	-0.44619292
196	0xbe667f3c	-0.22509474
197	0x3edc8220	0.43068027
198	0xbe7e2637	-0.24819265
199	0xbd4a6447	-0.04941204
200	0x3e939792	0.28826576
201	0x3ef6a782	0.48174673
202	0xbd8bf4f3	-0.0683383
203	0xbe96ec96	-0.29477376
204	0x3e584d93	0.21123342
205	0x3e3f2f84	0.1867047
206	0x3dec852d	0.11548839
207	0xbdb34941	-0.087542064
208	0x3ef3f5ba	0.47648412
209	0x3eaab81e	0.33343595
210	0x3dfb9842	0.122849
211	0x3f07b04a	0.5300337
212	0xbeffd0ab	-0.4996389
213	0x3e7eb9ed	0.24875613
214	0x3dbe1ecf	0.0928322
215	0x3e89d014	0.26916564
216	0x3e48da05	0.19614418
217	0x3f09ab0c	0.5377662
218	0x3abbacc7	0.001431846
219	0xbee348b3	-0.44391403
220	0x3ed004e0	0.4062872
221	0x3ea88d69	0.32920387
222	0xbd42e394	-0.047580317
223	0x3ea599eb	0.32343993
224	0xbd86d04d	-0.06582699
225	0xbe5127a9	-0.20425285
226	0xbe2aed77	-0.16692148
227	0x3ea57d93	0.32322368
228	0xbe3bf9db	-0.18357031
229	0x3eb6f81a	0.3573616
230	0xbe7115a0	-0.23543406
231	0xbf042f54	-0.51634717
232	0xbe3c5def	-0.18395208
233	0xbe9fea72	-0.31233555
234	0xbe28f424	-0.16499382
235	0x3ec03c7b	0.37546143
236	0x3ddfbba3	0.10924461
237	0xbd7ba2cb	-0.06143455
238	0xbca6f1c7	-0.02037896
239	0x3e49c0a3	0.19702391
240	0xbe7be3f2	-0.24598673
241	0x3efe594f	0.49677512
242	0xbeec08cb	-0.46100459
243	0xbf13beb7	-0.5771288
244	0xbe52af44	-0.20574671
245	0xbc6fa992	-0.014627831
246	0x3e9420c3	0.28931245
247	0xbe817de0	-0.25291348
248	0xbe9c8478	-0.30569816
249	0x3eb638d2	0.35590225
250	0x3f0260ec	0.5092914
251	0xbf011466	-0.5042175
252	0xbe9072c3	-0.28212556
253	0xbe82e01d	-0.2556161
254	0x3e7cd5da	0.24690953
255	0x3e0690cb	0.13141172

weight_hh_l0 f4 [12, 3]
0	0x3f28da0a	0.659577
1	0x3f41feec	0.75779605
2	0xbd0621e8	-0.03274718
3	0x3e99579a	0.29949647
4	0xbc7e2f3c	-0.015514191
5	0xbebdfc0f	-0.37106368
6	0xbe813eec	-0.25243318
7	0x3ed97b36	0.42476815
8	0x3f60adfa	0.8776547
9	0x3e300b1e	0.17191741
10	0x3e615658	0.22005594
11	0x3e6c1a04	0.23056799
12	0x3ec4b08d	0.38415948
13	0x3ef904c7	0.48636457
14	0xbe603f5f	-0.21899174
15	0x3f812b96	1.0091426
16	0x3ee8a688	0.45439553
17	0x3e0e49b5	0.13895305
18	0x3f4f9e1e	0.8110064
19	0x3e358e2c	0.17730016
20	0x3f0155a6	0.50521314
21	0x3e8a4ea3	0.2701312
22	0xbdeabe74	-0.11462107
23	0xbeca9861	-0.3956938
24	0x3f156f5b	0.5837304
25	0x3ead0461	0.33792403
26	0x3ebff401	0.37490848
27	0xbefbab21	-0.49153998
28	0x3f662050	0.89893055
29	0x3f1781da	0.5918251
30	0x3ed43d2a	0.41452914
31	0xbed0e0a8	-0.407964
32	0xbe812371	-0.25222352
33	0x3f84a796	1.0363643
34	0xbd1c1f16	-0.038115583
35	0x3f9f70c6	1.2456291

bias_ih_l0 f4 [12]
0	0xbeb033a3	-0.34414396
1	0xbea356df	-0.31902215
2	0x3de82fa0	0.11337209
3	0x3e51d057	0.20489632
4	0x3ec360ad	0.38159695
5	0x3ea78824	0.32721055
6	0x3e8a467c	0.270069
7	0x3d8f5d2d	0.07000194
8	0x3ee16c89	0.44028118
9	0xbe5f924a	-0.21833149
10	0x3d5fc85b	0.054634433
11	0x3f8a9fd3	1.0830024

bias_hh_l0 f4 [12]
0	0xbeaf2e93	-0.3421522
1	0x3eaf0cd5	0.34189478
2	0x3e4ab523	0.1979566
3	0x3efb9673	0.4913822
4	0xbead5a1c	-0.3385781
5	0x3f7502fb	0.9570767
6	0xbe2c5506	-0.16829309
7	0x3ef6a5da	0.4817341
8	0xbe14a97d	-0.1451778
9	0x3e6d1d6c	0.23155755
10	0x3e8f23cf	0.27957007
11	0x3f76e9b0	0.9645033
